MNIST.pt (torch, 441524 bytes, 6 tensors)

weight f4 [128, 784]
000000 80 ac da 3c 98 60 b2 3c 63 0d ef bc 38 12 c9 bc
       0.026693583 0.021774575 -0.029181188 -0.02454482
000010 2c f3 c3 bc 70 c9 b1 bc c7 63 92 bc fe 32 f0 3c
       -0.023919664 -0.021702498 -0.017869843 0.02932119
000020 d4 9f 28 3c c0 50 55 3a 80 36 25 3a ba d4 94 3c
       0.010292012 0.0008137338 0.00063023716 0.018167842
000030 d0 eb 14 bc f2 b5 4b bc 53 64 dd 3c 88 9b 06 3d
       -0.009089425 -0.012433516 0.027025377 0.03286317
000040 b8 fe 33 bc ea 32 ea bc 42 3d ee 3c 13 23 8e bc
       -0.010986023 -0.02858873 0.029081944 -0.017350709
000050 28 00 ce 3c 96 da f0 3c c8 21 c3 bb 30 6c 86 3b
       0.025146559 0.029401105 -0.005954955 0.0041022524
000060 9e 1f be 3c 6a 0b 29 bc d3 d4 05 3d a5 2f 04 bd
       0.023208436 -0.010317663 0.032673668 -0.032272
000070 c0 82 6b bc 2e 14 d3 bc 40 15 d1 bb a0 93 07 bd
       -0.014374435 -0.025766458 -0.006380707 -0.03309977
000080 ee 4e 00 bc 1a cb a0 3c b8 ef f6 3c 9b 67 ce bb
       -0.007831318 0.019628096 0.030143604 -0.006298972
000090 f8 59 30 3c 8b 30 9b bc c5 a4 51 3c 91 79 8e 3b
       0.010763638 -0.018944046 0.012795632 0.004347988
0000a0 98 ec 06 3d a4 04 de 3b 4f 9c b5 3c ad c5 6b 3c
       0.032940477 0.0067754555 0.02216926 0.014390391
0000b0 d2 a8 8e 3c 0f 56 af 3b df 24 01 3c f2 c7 f1 bc
       0.017414484 0.005350835 0.007882326 -0.029514287
0000c0 fb 1e 2e bb a1 03 a0 3b 57 bc fb 3c 00 cd 93 3c
       -0.0026568759 0.004883245 0.030729456 0.018042088
0000d0 7c 38 09 3c 88 97 ab 3c 1c 5e e3 bb 4a b7 f0 3c
       0.008375283 0.02094628 -0.006938709 0.029384274
0000e0 83 f7 b1 bc 28 4a c0 bc 7a b8 45 3c 91 9d 35 3b
       -0.021724468 -0.02347286 0.012067908 0.0027712325
0000f0 88 ca 4c bb dc 23 68 bc e6 d6 7e bc ed 2d 00 3d
       -0.0031248648 -0.014168706 -0.0155541655 0.0312938
000100 f3 a9 b1 3c 30 18 1c 3c 7c 94 5d 3b 60 f3 c7 bc
       0.021687483 0.009527251 0.0033810427 -0.024408042
000110 d9 16 cd bc 0b 48 7b bc 7d 05 15 bd 26 4e bb bc
       -0.025035309 -0.015337001 -0.036382187 -0.022864413
000120 40 02 2a bc 2b 34 3a bc 2e b5 23 bd 95 da 96 3c
       -0.010376513 -0.011364977 -0.03996771 0.018414775
000130 de 93 15 bd ab c1 17 bd 91 91 01 3d ee ee 1f bb
       -0.03651797 -0.03704993 0.031632964 -0.0024403888
000140 de 4c 78 3c 45 92 1c bc 0e 76 fd 3c 30 c0 3f 3c
       0.015155045 -0.009556358 0.030940082 0.011703536
000150 55 ca 89 bc 24 26 bc bb b8 4c b1 3c 85 e8 fc bb
       -0.016820112 -0.0057418514 0.021643028 -0.007718148
000160 49 db e8 3c 5f d1 f1 bc 0b 77 4d 3b 80 9c b3 3c
       0.028424876 -0.029518781 0.0031351473 0.021925211
000170 c7 51 5e bc 02 0a 17 bd fa a6 83 3c 55 bb 2b 3d
       -0.013569302 -0.03687478 0.016070832 0.0419267
000180 fb f9 fc 3c 6a e2 a0 3c a9 90 1b 3c b9 06 6a 3d
       0.030880919 0.019639213 0.009494939 0.057135317
000190 4e 12 37 3d 0b 83 55 3d 78 67 ff 3c e1 27 d4 bb
       0.04469519 0.052126925 0.031177267 -0.0064744805
0001a0 a5 04 b6 3c fa b4 d5 ba 8d f3 43 bc 5d 0a 1d bd
       0.022219012 -0.0016304546 -0.0119599225 -0.03833996
0001b0 54 cb 0b bd 88 e3 bb bc e7 49 8e 3b ae 4f 70 bc
       -0.034129456 -0.022935644 0.004342306 -0.014667435
0001c0 30 dc c9 3b 50 8e fc bc 0e 16 01 bd 82 1a 98 bb
       0.0061602816 -0.030829579 -0.031515174 -0.004641832
0001d0 28 a4 11 3d fd 8d 94 3c 7e 15 91 3c 9d 7f de bc
       0.035556942 0.018134112 0.017710444 -0.02716046
0001e0 f9 4b 04 bd 66 3d 81 3c f5 1a e6 3c 1b 2a 53 3c
       -0.032299016 0.015776347 0.028089026 0.012888457
0001f0 0c ca 52 3d 2c ac 6e 3d 9c 98 ae 3d 79 3e e0 3d
       0.05146222 0.058269665 0.08525202 0.10949416
000200 90 ef c0 3d f0 92 ba 3d 10 12 29 3d 07 93 43 bc
       0.09420693 0.09110057 0.04127699 -0.0119369095
000210 74 aa 93 bc 18 96 61 bd cc a5 98 bc 9e c1 3f bd
       -0.018025614 -0.05507478 -0.018633746 -0.046815507
000220 1d f4 ca bc f8 aa 2c bd 5c ee ed 3b c3 45 09 bd
       -0.024774605 -0.042155236 0.0072610807 -0.033513796
000230 5e e4 80 3c de 42 83 3c 01 df dc bb db 98 a4 3c
       0.015733894 0.016023096 -0.0067404513 0.020092418
000240 8e f3 18 3b 51 ae ae 3b 7c 01 95 b9 b9 56 0d bc
       0.002333853 0.0053308387 -0.000284206 -0.008626633
000250 44 2f 32 3c 33 e5 5e bc 73 e7 a5 3b da 35 92 3c
       0.010875527 -0.01360445 0.0050629913 0.017847944
000260 c8 4e 71 bc 00 63 0f 3d 4c e6 00 3c d0 cc 46 3d
       -0.014728256 0.035006523 0.007867407 0.04853517
000270 64 2b 83 3d 95 9c ad 3d 4c a8 6a 3d 18 c2 fe 3c
       0.064047605 0.08477131 0.057289407 0.03109841
000280 bb 56 83 3d 00 e3 9a 3c dc a6 8e 3c 75 d0 19 bd
       0.06413027 0.01890707 0.01741355 -0.037552316
000290 7f b3 e7 bc e5 b5 6a bb 7b 6b ea bc d2 3d d6 bc
       -0.028283833 -0.0035813984 -0.028615704 -0.026152525
0002a0 4a a3 f2 bc 3d c5 bd bc eb 9a df 3c 1a ec 9b 3c
       -0.029618878 -0.02316534 0.02729555 0.01903348
0002b0 fb 6f 10 bc 80 7c 05 3c 05 d1 09 3b 39 77 80 bb
       -0.008815761 0.008147359 0.0021029126 -0.0039204624
0002c0 ab ce 4a bd c6 95 90 bd 06 71 24 bd f7 a4 03 bd
       -0.0495135 -0.07059817 -0.04014685 -0.032139745
0002d0 92 08 b4 bd 74 93 1a 3d 5b 34 71 bd 61 bd f7 bd
       -0.08790697 0.03773828 -0.05888782 -0.12096668
0002e0 87 5c 06 bd b6 2b ba bb 9a 74 43 3d 31 10 46 3d
       -0.032803085 -0.0056814803 0.04771862 0.048355285
0002f0 a9 ff 8f 3d 75 88 04 3e 65 53 e2 3d c3 fb 57 3c
       0.07031185 0.12942679 0.110510625 0.013182583
000300 2e d8 14 bd 5c 0e 54 bc 5a 0d 97 3c 15 24 c6 bc
       -0.036338978 -0.012942877 0.018438984 -0.024187127
000310 18 9f 2a 3c 45 8b 57 bc 41 c5 42 bc 1b 05 ce 3b
       0.0104139075 -0.013155763 -0.011887849 0.0062872297
000320 48 c7 9c 3c 47 6b c7 3c 88 c2 3d bd 0f b9 33 bd
       0.019137993 0.024343146 -0.046328098 -0.043877658
000330 99 6c 70 bd 27 c6 c0 bc cf bc 82 bd 3d af 9f bd
       -0.058697317 -0.023531986 -0.06383669 -0.07797096
000340 1f 1b 7c bd 4e b0 3d bd 02 0c 9d bd 76 13 bc bd
       -0.061549302 -0.046310715 -0.07668306 -0.091833994
000350 6b 89 1c 3d a6 e8 9c 3d 4d 39 08 3e b2 fe a4 3d
       0.03821699 0.07661562 0.13303109 0.08056392
000360 ba dd 97 3d dd c5 89 3d 0a 63 04 3e bf ad 56 3d
       0.07415338 0.067271926 0.12928405 0.05241179
000370 b3 09 bd bc ee d9 88 bb f5 ca da 3c 11 c1 f4 3c
       -0.023075914 -0.00417637 0.026708106 0.029877217
000380 40 46 c0 bc e6 ef 5a bc 13 0e c5 bc d9 a0 0d 3d
       -0.023470998 -0.01336286 -0.024054563 0.034577224
000390 b3 dc d9 bc 54 9e 5c 3c 4e 1a 41 bd ef 18 55 bd
       -0.026594495 0.013465483 -0.047144227 -0.05202573
0003a0 9e e7 1c bd 68 3b 83 bc 51 d4 87 bd 5d f7 b7 bd
       -0.038306825 -0.016019538 -0.06632293 -0.08982728
0003b0 87 31 1c bd 5c 7f 9f bd 27 88 b1 bc 1d 2d 4f 3c
       -0.03813317 -0.07787964 -0.021671368 0.012645033
0003c0 49 ae eb 3d ba f1 95 3d 6b b1 c3 3d 99 38 f7 3d
       0.11507852 0.07321496 0.09555324 0.12071342
0003d0 2f d5 c1 3d 90 f3 b5 3d d6 55 09 3e fb 83 bb 3d
       0.0946449 0.088843465 0.1341165 0.09156033
0003e0 1b d9 f0 3b df ba 28 3c 09 bf 2b bc bf f0 e6 bc
       0.0073500997 0.01029846 -0.010482558 -0.028190969
0003f0 cb c2 0a 3d 31 b4 dd bc 32 9a ff 3b 3a 61 93 bc
       0.033877175 -0.027063461 0.007800364 -0.017990697

bias f4 [128]
000000 0f a7 eb 3b 4b 59 47 3d 22 81 2c bc df de ca 3d
       0.007191546 0.04866914 -0.010528835 0.099057905
000010 a1 0b d0 3b 48 bb 3d 3d dc 87 9a bc 55 3a f4 bb
       0.0063490425 0.046321183 -0.01886361 -0.007453243
000020 2e 29 9f bd 3c 7c 9a 3d 9c 59 f5 3d c0 fd 26 3e
       -0.07771526 0.07543227 0.11979982 0.16307735
000030 f6 74 03 3e bc 4a 80 bc 84 9e 6e 3c 41 67 b0 3d
       0.12837586 -0.015660636 0.01456416 0.08613444
000040 d5 ca b7 3d df 59 2e 3e 65 99 d6 bb b4 f8 3c bd
       0.08974234 0.1702647 -0.006549048 -0.04613562
000050 d8 80 09 3d c3 5a e0 3d 72 7f 99 3d 44 8d a0 3c
       0.03357014 0.109548114 0.074950114 0.01959861
000060 82 8d 34 be 0c 1e 58 bd 27 0b b5 3d 4e 8d 07 be
       -0.17632106 -0.05276303 0.08840018 -0.13237497
000070 46 19 3e bc 60 5a ed bd dd 89 7a bb ff ed 9b 3d
       -0.011602705 -0.11589503 -0.0038229146 0.076137535
000080 f7 3d b5 bb 9c 27 b7 3d 02 ba 82 bd 30 84 d9 3d
       -0.0055310684 0.08943102 -0.063831344 0.10620916
000090 fd f5 3a bd c3 d0 9d 3d 4c e3 60 3e 82 52 91 bd
       -0.04564475 0.07705834 0.21961707 -0.07095815
0000a0 52 7c 2c 3e 87 78 c3 3d b3 f6 aa bd 14 68 3d bc
       0.168443 0.09544473 -0.083478354 -0.011560459
0000b0 65 dc 3d bc 38 22 a1 3d c5 dc f0 3d f5 2f 0f 3d
       -0.011588191 0.07867855 0.117608584 0.034957845
0000c0 05 1f 01 be 84 3f 89 3d bb 8a 8f bd da 44 71 3d
       -0.1260949 0.06701568 -0.070088826 0.058903553
0000d0 f1 61 8e 3b f2 78 12 bd 4a 2e 29 bd 73 1d 4f bd
       0.0043451716 -0.035759874 -0.04130391 -0.050565194
0000e0 83 4e a2 bc 95 19 14 bb fa 0e 2c 3d 44 fe e1 3d
       -0.019812828 -0.0022598256 0.04200647 0.110348254
0000f0 ad b6 c1 3d 27 7f 3f bd c8 fb 53 3d 85 35 08 3e
       0.09458671 -0.04675212 0.05175379 0.13301666
000100 08 0b 65 3d d2 e2 e5 3d 31 5e 3b bd cd f6 21 3d
       0.055918723 0.11224903 -0.045744125 0.03954201
000110 55 94 24 bb c5 ab 27 3e d0 6f 7b 3d a3 20 20 bc
       -0.0025112827 0.16374119 0.06138593 -0.009773406
000120 fc f1 31 3d 23 c4 2f 3d 96 5a 0f 3d 14 7e 3f 3d
       0.043443665 0.04291166 0.0349985 0.046751097
000130 f3 97 bc 3d 5b 41 79 3d 9b fa 93 3d c7 74 59 3d
       0.092086695 0.060853343 0.072255336 0.053089883
000140 83 33 75 3d 31 49 48 3c 4e 05 e8 3d cb c0 71 bd
       0.05986358 0.012224481 0.11329137 -0.059021752
000150 93 dc 9f bc c7 7e 83 bc 7a 0f 86 3d b2 ed 4b 3c
       -0.019514358 -0.016051663 0.06545921 0.012446808
000160 22 98 3d 3d 89 56 cd 3d 9c 6b f0 3d 06 93 27 bd
       0.046287663 0.10026271 0.11739275 -0.040911697
000170 4d e1 a4 3d 7f 64 0e 3e cd 50 08 bc 00 09 57 3d
       0.08050785 0.13905524 -0.008320046 0.052498817
000180 1a e0 47 bd 0b 1c 1e bc c5 6f e9 3c 63 03 3c 3d
       -0.048797704 -0.009650241 0.028495679 0.045901667
000190 45 e5 ab 3d e8 29 de bd 5c 6b 85 bd 4b 11 ad 3d
       0.08393339 -0.10847837 -0.06514618 0.08450564
0001a0 23 d5 5a bd 3f e6 7c 3c 13 14 42 bc 1d 2c d9 bd
       -0.05342592 0.015435754 -0.011845606 -0.10604117
0001b0 92 5e 02 3e a4 80 fc bd 7e 6e 82 3c d6 ae 53 bc
       0.12731388 -0.12329224 0.015921827 -0.012920102
0001c0 56 11 90 bc d2 ba 50 bc 51 1e 2a 3e 22 26 e2 3c
       -0.017586391 -0.012739854 0.16613127 0.027606074
0001d0 16 c6 a1 bd f8 96 20 bd 17 7f 55 bc 31 9f 60 3d
       -0.0789911 -0.039206475 -0.013030789 0.054839317
0001e0 f7 8a 1f bb ca b9 e2 3d a3 b3 e0 3b 5e 79 77 bd
       -0.0024344304 0.11070593 0.006857352 -0.06041848
0001f0 14 7e 34 bc b3 b3 38 3d 8f ad 29 3d 40 f4 5d 3d
       -0.0110163875 0.04509325 0.041425284 0.054188013

weight f4 [64, 128]
000000 c0 fa 22 bd f6 d7 a8 3b 6a 4f 31 bd 6a e8 36 3d
       -0.039789915 0.0051526977 -0.043288626 0.04465524
000010 0f 4e 50 3d 24 21 fe 3c e8 fc 77 bd fe 55 24 bd
       0.050855692 0.031021662 -0.060543925 -0.04012107
000020 25 43 09 3d 9b 79 8b bd 9e 6d 35 bd 76 80 e6 3c
       0.0335113 -0.06810304 -0.044293992 0.028137427
000030 ad 82 8d 3d 7b f7 e6 bc 8b ee af bd d4 32 ab bc
       0.0690969 -0.02819418 -0.0859042 -0.02089826
000040 9e 5c e7 3d 58 ca 5a 3c df 2c a4 3d b4 a2 8d 3c
       0.11296962 0.013353907 0.08016371 0.017289497
000050 51 30 e2 bb ce d2 1c bc a5 50 7d bd ae 04 66 bd
       -0.0069027324 -0.009571744 -0.061844487 -0.056156807
000060 8c 06 e8 bd 5d 22 88 3d 03 2c 21 3d 81 6e 6d 3d
       -0.11329374 0.06647179 0.039348613 0.057966713
000070 86 7d a3 3d a8 41 82 3d 48 52 c4 bd 37 0e d5 3b
       0.07982926 0.06360179 -0.095860064 0.0065019387
000080 4d 1f f1 39 f9 f7 0c bd 7c e5 a8 3d 5c 00 a4 3d
       0.00045990423 -0.034416173 0.08246896 0.08007881
000090 10 40 4c 3d d2 6e 85 3d 8a 08 85 bd ef 94 ec 3d
       0.049865782 0.06515278 -0.06495769 0.11551844
0000a0 9b 2c 4c 3d c8 ec e1 3d b9 0a 43 bb 2f e5 f2 bc
       0.049847227 0.110314906 -0.002976103 -0.029650299
0000b0 39 65 8d bd 5c 4d e4 bc 3b 4a 91 bb b8 58 87 bd
       -0.06904072 -0.02786892 -0.004433898 -0.06608719
0000c0 d5 1e a2 bc 00 8c 83 3c ee cf b1 3d e2 8d bf 3d
       -0.019790092 0.016057968 0.086822376 0.09353234
0000d0 a8 30 0d 3d 6d b1 e0 bc b7 fc cf bd fe 19 0c bd
       0.03447023 -0.027428353 -0.101556234 -0.034204476
0000e0 ce 38 84 3d e2 61 af 3d cd 79 0d bc ff 4a 37 3d
       0.06456147 0.085635915 -0.008634997 0.044749256
0000f0 17 79 8a 3d 32 ff 46 bc 01 b9 a2 bd 17 c8 8d 3c
       0.06761377 -0.012145804 -0.07945443 0.017307324
000100 f0 05 89 bd cf bf a3 bd df 2b ab 3b 54 b8 c0 3d
       -0.066905856 -0.07995569 0.0052237357 0.09410158
000110 e8 47 b6 bc c9 9d ac 3d 4d cd 88 bc 7d f7 8a 3a
       -0.022251084 0.08428533 -0.016699458 0.0010602322
000120 0d b6 8e 3d 92 d0 84 bc 26 50 83 bd 5f 27 81 3d
       0.06968317 -0.016212735 -0.064117715 0.063063376
000130 d2 fc 47 bd 48 4b 91 bd fb b8 0e bd 89 6f 0b 3c
       -0.048825093 -0.07094437 -0.03484438 0.008510479
000140 9a 03 2d bd e1 4c 48 bd fe 3e 48 bd a4 1c 67 bd
       -0.042239763 -0.048901442 -0.0488882 -0.0564238
000150 67 a2 73 3d 65 a8 52 bc c1 80 96 bd 11 66 c8 3d
       0.05948105 -0.012857531 -0.073487766 0.097850926
000160 30 82 24 bd da ef 01 bd c2 3f 45 3c 8c 32 70 3d
       -0.04016322 -0.03172288 0.012039127 0.058641955
000170 25 c9 5a 3d eb 6d 0a 3c 8a 74 3b 3c 5f 43 c7 bc
       0.053414483 0.008449058 0.011441359 -0.024324117
000180 db eb 07 bc f9 4e 17 3d e9 75 11 bd 5a d2 00 ba
       -0.008295978 0.03694055 -0.03551284 -0.00049141573
000190 b3 5d a5 3c 60 5a dc 3b 00 88 7f bd bc 6e de bd
       0.02018628 0.0067246407 -0.06238556 -0.10860965
0001a0 b9 ad 96 3a 53 c4 5e bd 16 c6 40 3d 39 41 81 bc
       0.0011495865 -0.054386448 0.04706391 -0.01577817
0001b0 7e 6d 4c bd 7d 9d 4a 3c 19 cb 37 3d c6 f4 ca bc
       -0.049909107 0.01236665 0.044871423 -0.02477492
0001c0 a9 fc 5a bc 9b 57 b2 3b 3d 60 0e bd 82 b1 7f 3d
       -0.013365903 0.0054425723 -0.03475975 0.062425144
0001d0 65 a8 b4 bd 1e 97 b6 bd 6b e8 83 bd ee ce 51 bd
       -0.08821181 -0.08915542 -0.064408146 -0.051222734
0001e0 fc 12 98 bd 1c 67 37 3c 44 39 f4 3b 41 42 82 3d
       -0.07425496 0.011194017 0.0074531157 0.06360293
0001f0 c8 c1 ab bd 76 1a d4 bb 2a d4 f8 bc 54 32 80 3d
       -0.0838657 -0.006472881 -0.030374605 0.06259599
000200 15 49 0f 3e 45 72 3c 3b d6 70 4e 3d 75 74 9c bd
       0.13992722 0.0028754633 0.050400577 -0.076394
000210 da d0 12 3e b2 68 ad 3c 5c e8 ed bc 64 2a 37 be
       0.14337483 0.021168087 -0.029041462 -0.17887264
000220 10 80 c1 bd 89 0b 31 bc c7 2c 19 be cc 10 69 bd
       -0.09448254 -0.010805973 -0.14958487 -0.056900784
000230 18 dc 05 be 1e f3 0b bd d0 03 fb bd 39 83 22 3d
       -0.1307224 -0.0341674 -0.122565866 0.039675925
000240 8b 72 01 3e c1 ce 68 bc e7 cc 28 3b d0 70 f7 3d
       0.12641351 -0.01420945 0.0025756897 0.12082064
000250 a6 2e 42 bd 3c 4d 82 3e d7 9d ca bd e3 69 9f 3d
       -0.04740777 0.2544955 -0.09893387 0.07783868
000260 42 39 95 bd 4b e6 8e 3e 9c 9b ec bc f6 50 a0 3d
       -0.07286312 0.27910075 -0.028882794 0.07827942
000270 09 5c 33 bd 88 c1 47 3e 39 ac ba bc 5c c0 1b 3d
       -0.043788943 0.1950742 -0.0227872 0.038025245
000280 fa 85 2c 3e f5 2b 88 3d a5 e3 de bd 5b ca 96 3d
       0.16847983 0.06649009 -0.108832635 0.07362815
000290 7d b2 f5 bd 6f 4d b8 3d 6b 44 ac 3d 80 53 ae 3d
       -0.119969346 0.08999144 0.08411487 0.0851202
0002a0 51 9d 6e 3e 96 d2 d4 3d ec a9 96 bb 22 4c 93 3d
       0.23302199 0.103917286 -0.004597893 0.071922556
0002b0 6b 34 b8 3a 9d a4 4e bd 7b 2b 9a 3d d7 c1 b1 bd
       0.0014053708 -0.050449956 0.075278245 -0.0867955
0002c0 09 9f fa bd 34 57 84 3c 8e 81 91 bb 83 8e 2a bd
       -0.12237365 0.016154863 -0.004440493 -0.041639816
0002d0 3b 9a ae bd 25 f5 b1 3d 82 ed f1 bd 7a 91 1c bd
       -0.08525511 0.08689336 -0.11812879 -0.038224675
0002e0 cb 8a bd 3c 07 10 08 3e 8a 24 48 3d 45 26 81 3a
       0.02313747 0.13287364 0.04886297 0.0009853324
0002f0 10 47 5f bd 9b 0b 30 bc a3 67 e3 bd 0a 6e 0c 3e
       -0.05451113 -0.010744954 -0.111037515 0.13713852
000300 63 08 1c 3d 11 a0 c6 bc e5 55 94 3b 3a 57 a4 3d
       0.038093936 -0.024246247 0.004526841 0.0802445
000310 85 ac a2 3d b9 a0 51 bd 71 3b f2 bc 6d 7b 60 bd
       0.07943062 -0.051178668 -0.02956936 -0.054805208
000320 60 75 af 3c 8c 2d ea bd 8f e7 25 3d 22 74 40 3e
       0.021418273 -0.114344686 0.040504035 0.18794301
000330 73 30 b4 3d 35 77 bf bc 92 8d 9f bd 77 89 dc 3c
       0.087983035 -0.023372272 -0.07790674 0.026921017
000340 e0 68 00 bd 18 b1 7d bd 12 02 de 3d 72 21 14 3d
       -0.031350017 -0.061936468 0.10840239 0.03616471
000350 1a 00 55 bc 47 05 5e 3b 72 d7 7c be 2b 7e 94 bc
       -0.0130005125 0.0033877657 -0.24691561 -0.018126568
000360 a7 fb c5 3c 97 c2 78 bd 95 10 27 bd a4 f5 9a bd
       0.024167849 -0.06073245 -0.0407873 -0.075663835
000370 ea c3 60 3d 62 c6 1a 3e 6b 96 ca 3c 8d 96 6e bd
       0.05487434 0.1511474 0.024729928 -0.058249045
000380 43 7b 5d 3e 3c e6 28 3d 0b 39 c5 bc 1d 7e e8 3c
       0.21629052 0.041235194 -0.024075052 0.028380448
000390 b3 6d b3 bd 59 10 5f bd c9 7d b8 3d d9 be a9 bd
       -0.08761158 -0.05445895 0.090083666 -0.082883544
0003a0 a0 a3 05 bc de 29 05 3c 04 e3 0f 3d 32 13 b8 bd
       -0.008156687 0.008127658 0.03512861 -0.08988036
0003b0 44 27 bc ba 8b 54 a8 3c cd b0 d1 3c ec 3e ac bd
       -0.0014354964 0.020548126 0.025597 -0.08410439
0003c0 6b 12 95 bd b1 53 bc 3d 21 fe 53 bc b6 09 50 3d
       -0.072789036 0.0919565 -0.012939007 0.05079051
0003d0 fb bf 31 be 39 af 99 bd d7 b3 37 3c d3 fb 8b 3c
       -0.17358391 -0.07504124 0.011212311 0.017087853
0003e0 71 ab c2 bd 74 cd f7 bd b0 4e 12 3e 8a aa 36 3d
       -0.09505356 -0.12099734 0.1428783 0.044596232
0003f0 b1 b7 82 bd d2 87 ac 3b 1c c3 a4 3d 46 a8 d5 3d
       -0.063826926 0.0052652145 0.08045027 0.10432486

bias f4 [64]
000000 15 22 16 bd af 7e 29 3d ae f1 e8 3c 55 3c e6 3d
       -0.036653597 0.04138058 0.028435554 0.11241976
000010 c5 11 63 3c 06 e8 a5 bd 08 88 d6 3d ce 39 eb 3c
       0.013859217 -0.081008956 0.10475165 0.028714087
000020 11 54 4c 3c c9 32 13 3d 61 ac 96 bd 6f da 1a 3d
       0.012471215 0.035937104 -0.073570974 0.03780597
000030 49 dc cf bc d1 f0 81 3d 0c 72 59 bd 21 7c ac 3d
       -0.025373595 0.0634476 -0.05308728 0.08422113
000040 ca ba 0b be 53 a3 8d bc 83 09 59 3e 0b 8b 26 3d
       -0.13645473 -0.017289793 0.21195035 0.040659945
000050 d0 b4 3e bc f7 8a fb 3c 3a 3c ad 3d 79 53 db 3d
       -0.011639789 0.030705912 0.08458753 0.107092805
000060 2d f5 96 3d b3 2e 4f 3e c1 87 03 3e 55 23 5e 3d
       0.07370982 0.20232658 0.12844755 0.054232914
000070 43 48 31 ba bc cd 85 bd 1f 7b 28 3e de b1 5e bd
       -0.0006762782 -0.06533381 0.16453217 -0.054368846
000080 fc 87 94 bd ac ea 35 3d 36 0e d1 3b e6 ec 0a 3c
       -0.072524995 0.044413254 0.006379868 0.008479333
000090 37 e2 6b 3c 37 c5 93 bd 09 4f d2 3c b1 64 16 3e
       0.014397196 -0.0721535 0.025672453 0.14686848
0000a0 4a 94 14 3d c0 40 88 3b 5f bb 99 3d 0a c2 32 3e
       0.036274232 0.0041581094 0.07506441 0.17456833
0000b0 4a 25 64 3e 6c 20 97 3c 54 ee 5f 3c ca eb 33 3d
       0.2227985 0.018448077 0.013667662 0.043926038
0000c0 12 15 a3 3d a7 3e a9 3c 0c 97 a0 3e 03 98 20 3b
       0.07963003 0.020659758 0.3136524 0.0024504669
0000d0 a9 bc c7 3d 97 e8 c0 3d 3a a9 ef bb 39 f2 03 bd
       0.09752781 0.09419363 -0.0073138746 -0.032213423
0000e0 ae 14 0e bc 3b e2 0d 3e f4 8e d3 bd 65 21 01 3d
       -0.008671923 0.13855831 -0.103300005 0.031525988
0000f0 47 28 66 3e 21 16 80 bd b5 09 18 bd 7e e9 4c 3d
       0.22476302 -0.06254221 -0.037118632 0.050027363

weight f4 [10, 64]
000000 d3 0b 19 bd 0b 0b df 3c 34 35 a4 3d 9f 63 a0 be
       -0.037364792 0.027226945 0.0801796 -0.31326005
000010 d7 13 7e be 4e 93 fd 3e b1 8c f4 3d ad 60 f8 3e
       -0.24812256 0.49526447 0.11940897 0.48511258
000020 60 6b 56 be a3 e2 82 be 95 53 a0 bd 11 57 3a bc
       -0.20939398 -0.25563535 -0.07828442 -0.011373297
000030 6f d1 3f 3e 24 e8 0a 3e 66 71 e7 bc 6f ad 15 bf
       0.18732236 0.13565117 -0.028252315 -0.58467764
000040 4c 6d c2 3e 95 21 17 3f af f8 a9 be 34 08 af 3e
       0.37974012 0.5903562 -0.33197543 0.34185946
000050 03 35 9e 3d b4 ef 1a 3d 9a b2 d5 bd 02 e8 9a bd
       0.07724955 0.037826255 -0.10434456 -0.07563783
000060 59 80 3e be ad 3b 7c be de 8d 35 3f b8 bf f5 bc
       -0.18603648 -0.2463214 0.709196 -0.029998645
000070 5c d9 28 3d c8 af 59 be 71 81 02 be b5 e7 9d 3d
       0.041222915 -0.21258461 -0.1274469 0.0771021
000080 1b 43 f1 bd cc 32 98 3d db 6c 6f 3e 54 ca 45 bc
       -0.117803775 0.07431564 0.23381369 -0.012072165
000090 d8 86 de 3e bc 3f c7 3d 4e 86 47 3e 08 f4 bf be
       0.43462253 0.09728953 0.19484827 -0.3749087
0000a0 76 35 bf 3b 5e 5a 7b be bb 2d 9a be 06 9f 9e 3e
       0.0058352305 -0.24546191 -0.30113015 0.309807
0000b0 be ff 13 bf a0 f5 af 3e c7 93 31 be e9 15 92 bc
       -0.57812107 0.34367085 -0.17341529 -0.017832713
0000c0 90 79 53 bd 5d 7f 93 bd e3 e4 32 bf 9c 25 42 3c
       -0.051629603 -0.07202027 -0.69880503 0.011849787
0000d0 54 c9 41 bf bd ea 91 be 6b 77 cd bd 72 4f fa 3d
       -0.7569783 -0.28499404 -0.10032543 0.12222184
0000e0 0f 4f a9 3e 9d b3 33 3f 09 d2 63 be f1 04 c7 3e
       0.3306813 0.70195943 -0.22248091 0.38870957
0000f0 bb 64 cc 3c 99 4e 11 3d 0c af ee bd 7a 6e 50 bd
       0.024950376 0.035475347 -0.11654481 -0.05088661
000100 23 4a bc bd f7 cc a5 bd 47 28 80 bb 1e c6 b1 be
       -0.09193828 -0.080957346 -0.0039110514 -0.34721464
000110 13 24 c0 be ff c0 42 be ec 12 ee bc c5 7a 85 be
       -0.37527522 -0.19018935 -0.029061757 -0.26070228
000120 26 2d 3d 3d 16 c9 40 bd e2 6c de 3d f7 38 5a be
       0.046185635 -0.04706677 0.108606115 -0.21310793
000130 c6 14 07 bf 30 97 67 be 68 43 4e bd 0e dd 45 bd
       -0.5276607 -0.22616267 -0.050357252 -0.048306517
000140 b8 b5 7f 3e ee b2 83 be ed c3 bd 3e 2e eb f6 bc
       0.24971664 -0.2572245 0.37063542 -0.03014144
000150 0a 85 a4 be af ec f8 bc e7 4d 62 bc c2 53 1b bf
       -0.3213275 -0.030386297 -0.013812519 -0.6067468
000160 ed 23 98 3d cd c4 b7 be cb 04 28 bf 67 e5 16 3e
       0.07428727 -0.35892335 -0.65632313 0.14735948
000170 c0 2c 9e be 96 2c b9 3e fd 9b 36 3f 06 eb b2 3d
       -0.30893517 0.3616683 0.7133177 0.087362334
000180 57 51 c3 bc ad b3 d6 3d bc db 01 3d c2 10 d2 bd
       -0.023842497 0.10483489 0.031703696 -0.102571025
000190 45 a6 9e 3b 43 a8 75 3d 20 bf 02 3e bb 3e 6b 3e
       0.004841598 0.05997492 0.12768221 0.22973149
0001a0 0d f7 93 3c fe 0c 4e be a4 cc d0 bd 32 b0 f3 bd
       0.018062139 -0.20122144 -0.10195282 -0.11898841
0001b0 ea 48 57 3f b4 cf 2f 3d 64 90 6a be 31 f9 96 3d
       0.84095633 0.04292269 -0.22906643 0.07371748
0001c0 86 59 b7 3e cd 8f 8a bd dd 54 50 3f f4 c4 54 3c
       0.35810488 -0.06765709 0.8137949 0.01298641
0001d0 d5 9d 4f 3f a0 7d 86 be b7 35 fc bd f2 61 c0 3d
       0.8110021 -0.2626772 -0.12314933 0.093936816
0001e0 cf 05 28 bd ce 4a 7e be 42 e9 8c 3e 53 17 c6 3e
       -0.041021165 -0.24833223 0.27521712 0.3868967
0001f0 09 f8 9c 3c 51 fe 2e bd da c4 ce bd 0f c7 0b 3f
       0.019161241 -0.042723004 -0.1009614 0.54600614
000200 51 ad 45 be c9 42 f9 be 68 20 bb bd df 1e 4b 3d
       -0.19304396 -0.48683766 -0.091370404 0.049589988
000210 92 49 df 3e 93 19 41 3e ff 5d 55 3e eb 39 e2 3d
       0.43610817 0.18857412 0.20836638 0.11046203
000220 57 ea cc bd b1 47 80 3e f3 08 17 3d 76 be b4 3d
       -0.10005634 0.25054696 0.03687377 0.0882539
000230 b9 21 ed bd 07 91 cc 3e fa 1b 6a 3d bb 71 5e be
       -0.11578698 0.39954397 0.057155587 -0.21723072
000240 01 6d d3 3d 83 bd 1d 3f 08 cb 40 bf 29 33 0d bd
       0.10323525 0.61617297 -0.753098 -0.03447262
000250 32 08 2b bf 7d 09 9d 3d 74 c1 c3 bc e3 5f 41 be
       -0.6680938 0.07667825 -0.023895957 -0.18884234
000260 c8 8b 81 3e ca ab 27 3e c5 16 49 bd c2 48 82 be
       0.25301957 0.16374126 -0.04909398 -0.25446135
000270 5f cc 55 3f 05 27 36 3f 89 32 1c 3e 37 9b f3 bd
       0.8351497 0.7115329 0.15253653 -0.11894839
000280 05 b4 b0 3d 84 dd fc bd ae a2 14 bd cf 59 4f 3f
       0.08628086 -0.12346938 -0.036287956 0.8099641
000290 c1 8c d6 3d e4 36 cc bc de 93 f2 bd d2 5d 24 bf
       0.104760654 -0.024928518 -0.1184461 -0.6420566
0002a0 f7 de d0 3d 37 14 9a 3e fc 01 b8 3b 54 9c b5 be
       0.10198777 0.30093548 0.005615471 -0.3547083
0002b0 0b ae ae be 33 d8 67 3e c6 26 f7 3e 47 c8 9e 3d
       -0.3411716 0.22641067 0.4827177 0.077530436
0002c0 08 aa a5 3e f5 4a 03 3e 80 93 ab 3e e8 02 c3 3e
       0.32356286 0.12821563 0.3351097 0.38088155
0002d0 00 9c ee 3e f2 c2 04 be d2 5f 86 be af 32 65 bc
       0.46603394 -0.1296499 -0.2624498 -0.013989135
0002e0 f0 a9 83 be 91 26 66 be 09 2f a0 3e 5b 63 85 3e
       -0.2571559 -0.2247565 0.31285885 0.26052365
0002f0 b4 bc 50 3d d4 cd eb bb a0 98 62 bc d1 03 54 be
       0.05096121 -0.0071961675 -0.013830334 -0.20704581
000300 93 1e b4 3d c0 c6 8b 3e f0 34 a8 bd 71 66 13 bd
       0.08794894 0.27300072 -0.08213222 -0.035986368
000310 90 6e 30 3e 5e e0 26 3f 31 2d e7 3e 6d 54 75 3e
       0.17229676 0.6518611 0.45151666 0.23957987
000320 75 51 f3 3d d2 df 0f 3f c8 ab d7 bc 5b a9 ea 3d
       0.11880771 0.562009 -0.026327029 0.11458083
000330 62 4c ca 3e 73 c3 45 be a0 de e9 3c 65 14 44 3f
       0.395114 -0.19312839 0.028548539 0.7659362
000340 96 2a 32 bc 1b 89 b9 be 2f 8b c0 be 6d 77 8d be
       -0.010874411 -0.36237416 -0.3760619 -0.27630177
000350 c7 06 00 3f bb d9 9a 3c c2 74 95 bd 8d 3e e9 be
       0.5001034 0.01890265 -0.072976604 -0.45555535
000360 29 f5 28 be 0a 63 70 be 63 b4 87 3e e8 cc 28 bd
       -0.16499771 -0.2347528 0.26504812 -0.04121104
000370 f2 b2 88 be 06 70 5c bd 90 e4 e9 be 07 92 f3 3c
       -0.26699024 -0.05381777 -0.45682192 0.029732717
000380 e0 33 54 3c 0e 79 da 3d 5d 6d 42 3c ac e8 89 be
       0.012951821 0.106676206 0.011866895 -0.26935327
000390 8a d8 b9 be 81 89 38 bb 34 fe 3a be 67 4c 3c 3f
       -0.3629802 -0.002815813 -0.18261033 0.7355408
0003a0 d6 74 31 3d 0e e4 cd 3e 66 a2 9c be bd 2b ec be
       0.043324314 0.40213054 -0.3059265 -0.4612712
0003b0 7f 1d fa 3d b7 5e 7e be eb f0 d9 3e 69 92 83 3d
       0.12212657 -0.24840818 0.42566618 0.0642441
0003c0 3e e7 a1 3d 0d d9 d2 3d 37 eb 2c bf 9c 0c 32 be
       0.07905434 0.102953054 -0.6754641 -0.17387623
0003d0 65 58 98 3e 24 b0 76 be d1 ea 7a 3c 14 d2 89 bd
       0.2975494 -0.2409063 0.015314774 -0.06729522
0003e0 2a e7 a8 bc 3f 88 16 bf 96 f4 78 3f 4d cd f8 3d
       -0.02061804 -0.58801645 0.9724821 0.12148533
0003f0 ca c2 4f be 4a 0a b0 3d a0 bf e3 bd 06 0e 9c be
       -0.2028915 0.085957125 -0.11120534 -0.3047945

bias f4 [10]
000000 7b 93 43 be c4 6e ee 3e 02 cf 07 3e 16 cc c5 b9
       -0.19099228 0.46568882 0.13262561 -0.00037726824
000010 60 cf b8 3d 02 7c e5 3e b2 72 9b bd 54 41 8f 3d
       0.09023929 0.44821173 -0.07590236 0.06994882
000020 2c ce c6 bd ea 3b c7 3d
       -0.09707293 0.097282246
